…
tensor([ 0.2410, -0.2247, -0.2519], device='cuda:0', requires_grad=True)","tensor([[… device='cuda:0')","tensor([-0.0266,  0.1198, -0.0932], device='cuda:0')"
162,DomainClassifier,DomainDiscriminator,"tensor([[-0.1722,  0.5834, -0.3819],
[ 0.7650, -0.5239, -0.3792]], device='cuda:0',
grad_fn=<AddmmBackward0>)",,,,
163,,MoMLDNIDS,"(tensor([[ 1.1051, -0.9220],
[-0.8707,  0.3129]], device='cuda:0', grad_fn=<AddmmBackward0>), tensor([[-0.1722,  0.5834, -0.3819],
[ 0.7650, -0.5239, -0.3792]], device='cuda:0',
grad_fn=<AddmmBackward0>))
----------------------------------------------------------------
Layer (type)               Output Shape         Param #
================================================================
BatchNorm1d-1                   [-1, 16]              32
Linear-2                    [-1, 8]             136
BatchNorm1d-3                    [-1, 8]              16
ELU-4                    [-1, 8]               0
Dropout-5                    [-1, 8]               0
Linear-6                    [-1, 8]              72
BatchNorm1d-7                    [-1, 8]              16
ELU-8                    [-1, 8]               0
Dropout-9                    [-1, 8]               0
Linear-10                    [-1, 8]              72
BatchNorm1d-11                    [-1, 8]              16
ELU-12                    [-1, 8]               0
Dropout-13                    [-1, 8]               0
DGFeatExt-14                    [-1, 8]               0
Linear-15                    [-1, 8]              72
BatchNorm1d-16                    [-1, 8]              16
ELU-17                    [-1, 8]               0
Dropout-18                    [-1, 8]               0
Linear-19                    [-1, 8]              72
BatchNorm1d-20                    [-1, 8]              16
ELU-21                    [-1, 8]               0
Dropout-22                    [-1, 8]               0
Linear-23                    [-1, 2]              18
ClassifierANN-24                    [-1, 2]               0
Linear-25                    [-1, 8]              72
BatchNorm1d-26                    [-1, 8]              16
ELU-27                    [-1, 8]               0
Dropout-28                    [-1, 8]               0
Linear-29                    [-1, 8]              72
BatchNorm1d-30                    [-1, 8]              16
ELU-31                    [-1, 8]               0
Dropout-32                    [-1, 8]               0
Linear-33                    [-1, 3]              27
DomainDiscriminator-34                    [-1, 3]               0
================================================================
Total params: 757
Trainable params: 757
Non-trainable params: 0
----------------------------------------------------------------
Input size (MB): 0.00
Forward/backward pass size (MB): 0.00
Params size (MB): 0.00
Estimated Total Size (MB): 0.00
----------------------------------------------------------------",,,,
